…
    layers.Conv2D(32, (3, 3), activation='relu'),\n    layers.MaxPooling2D((2, 2)),\n    layers.Conv2D(64, (3, 3), activation='relu'),\n    layers.Flatten(),\n    layers.Dense(64, activation='relu'),\n    layers.Dense(10),\n    layers.Dropout(0.5)\n])\n\nWe have completed our first model! Let’s take a look at our summary.\n\nmodel1.summary()\n\nModel: \"sequential\"\n_________________________________________________________________\n Layer (type)                Output Shape              Param #   \n=================================================================\n conv2d (Conv2D)             (None, 148, 148, 32)      896       \n                                                                 \n max_pooling2d (MaxPooling2  (None, 74, 74, 32)        0         \n D)                                                              \n                                                                 \n conv2d_1 (Conv2D)           (None, 72, 72, 32)        9248      \n                                                                 \n max_pooling2d_1 (MaxPoolin  (None, 36, 36, 32)        0         \n g2D)                                                            \n                                                                 \n conv2d_2 (Conv2D)           (None, 34, 34, 64)        18496     \n                                                                 \n flatten (Flatten)           (None, 73984)             0         \n                                                                 \n dense (Dense)               (None, 64)                4735040   \n                                                                 \n dense_1 (Dense)             (None, 10)                650       \n                                                                 \n dropout (Dropout)           (None, 10)                0         \n                                                                 \n=================================================================\nTotal params: 4764330 (18.17 MB)\nTrainable params: 4764330 (18.17 MB)\nNon-trainable params: 0 (0.00 Byte)\n_________________________________________________________________\n\n\n\nmodel1.compile(optimizer='adam',\n              loss=keras.losses.SparseC
…
, 2)),\n    layers.Conv2D(32, (3, 3), activation='relu'),\n    layers.MaxPooling2D((2, 2)),\n    layers.Conv2D(64, (3, 3), activation='relu'),\n    layers.Flatten(),\n    layers.Dense(64, activation='relu'),\n    layers.Dense(10), # number of classes\n    layers.Dropout(0.5)\n])\n\nLet’s generate a summary of our model.\n\nmodel2.summary()\n\nModel: \"sequential_2\"\n_________________________________________________________________\n Layer (type)                Output Shape              Param #   \n=================================================================\n random_flip_1 (RandomFlip)  (None, 150, 150, 3)       0         \n                                                                 \n random_rotation_1 (RandomR  (None, 150, 150, 3)       0         \n otation)                                                        \n                                                                 \n conv2d_3 (Conv2D)           (None, 148, 148, 32)      896       \n                                                                 \n max_pooling2d_2 (MaxPoolin  (None, 74, 74, 32)        0         \n g2D)                                                            \n                                                                 \n conv2d_4 (Conv2D)           (None, 72, 72, 32)        9248      \n                                                                 \n max_pooling2d_3 (MaxPoolin  (None, 36, 36, 32)        0         \n g2D)                                                            \n                                                                 \n conv2d_5 (Conv2D)           (None, 34, 34, 64)        18496     \n                                                                 \n flatten_1 (Flatten)         (None, 73984)             0         \n                                                                 \n dense_2 (Dense)             (None, 64)                4735040   \n                                                                 \n dense_3 (Dense)             (None, 10)                650       \n                                                                 \n dropout_1 (Dropout)         (None, 10)                0         \n                                                                 \n=================================================================\nTotal params: 4764330 (18.17 MB)\nTrainable params: 4764330 (18.17 MB)\nNon-trainable params: 0 (0.00 Byte)\n_________________________________________________________________\n\n\n\nmodel2.compile(optimizer='adam',\n              loss=keras.losses.SparseC
…
ooling2D((2, 2)),\n    layers.Conv2D(32, (3, 3), activation='relu'),\n    layers.MaxPooling2D((2, 2)),\n    layers.Conv2D(64, (3, 3), activation='relu'),\n    layers.Flatten(),\n    layers.Dense(64, activation='relu'),\n    layers.Dense(10), # number of classes\n    layers.Dropout(0.5)\n])\n\nLet’s generate the summary!\n\nmodel3.summary()\n\nModel: \"sequential_3\"\n_________________________________________________________________\n Layer (type)                Output Shape              Param #   \n=================================================================\n model (Functional)          (None, 150, 150, 3)       0         \n                                                                 \n input_3 (InputLayer)        multiple                  0         \n                                                                 \n conv2d_6 (Conv2D)           (None, 148, 148, 32)      896       \n                                                                 \n max_pooling2d_4 (MaxPoolin  (None, 74, 74, 32)        0         \n g2D)                                                            \n                                                                 \n conv2d_7 (Conv2D)           (None, 72, 72, 32)        9248      \n                                                                 \n max_pooling2d_5 (MaxPoolin  (None, 36, 36, 32)        0         \n g2D)                                                            \n                                                                 \n conv2d_8 (Conv2D)           (None, 34, 34, 64)        18496     \n                                                                 \n flatten_2 (Flatten)         (None, 73984)             0         \n                                                                 \n dense_4 (Dense)             (None, 64)                4735040   \n                                                                 \n dense_5 (Dense)             (None, 10)                650       \n                                                                 \n dropout_2 (Dropout)         (None, 10)                0         \n                                                                 \n=================================================================\nTotal params: 4764330 (18.17 MB)\nTrainable params: 4764330 (18.17 MB)\nNon-trainable params: 0 (0.00 Byte)\n_________________________________________________________________\n\n\n\nmodel3.compile(optimizer='adam',\n              loss=keras.losses.SparseC
…
s.RandomFlip(\"horizontal_and_vertical\", input_shape=(150, 150, 3)),  # Horizontal flip augmentation\n    layers.RandomRotation(0.2),  # Random rotation augmentation,\n    base_model_layer,\n    layers.GlobalAveragePooling2D(),\n    layers.Dense(2),\n    layers.Dropout(0.5)\n])\n\nLet’s generate a summary of our model!\n\nmodel4.summary()\n\nModel: \"sequential_4\"\n_________________________________________________________________\n Layer (type)                Output Shape              Param #   \n=================================================================\n random_flip_3 (RandomFlip)  (None, 150, 150, 3)       0         \n                                                                 \n random_rotation_3 (RandomR  (None, 150, 150, 3)       0         \n otation)                                                        \n                                                                 \n model_1 (Functional)        (None, 5, 5, 960)         2996352   \n                                                                 \n global_average_pooling2d (  (None, 960)               0         \n GlobalAveragePooling2D)                                         \n                                                                 \n dense_6 (Dense)             (None, 2)                 1922      \n                                                                 \n dropout_3 (Dropout)         (None, 2)                 0         \n                                                                 \n=================================================================\nTotal params: 2998274 (11.44 MB)\nTrainable params: 1922 (7.51 KB)\nNon-trainable params: 2996352 (11.43 MB)\n_________________________________________________________________\n\n\n\nmodel4.compile(optimizer='adam',\n              loss=keras.losses.Sparse
…
