…
: 0.0807 - val_accuracy: 0.9791 - val_loss: 0.0658\nEpoch 20/20\n180/180 ━━━━━━━━━━━━━━━━━━━━ 9s 24ms/step - accuracy: 0.9713 - loss: 0.0815 - val_accuracy: 0.9773 - val_loss: 0.0663\n\n\nLet’s generate a summary of our model.\n\nmodel_title_only.summary()\n\nModel: \"sequential\"\n\n\n\n┏━━━━━━━━━━━━━━━━━━━━━━━━━━━━━━━━━━━━━━┳━━━━━━━━━━━━━━━━━━━━━━━━━━━━━┳━━━━━━━━━━━━━━━━━┓\n┃ Layer (type)                         ┃ Output Shape                ┃         Param # ┃\n┡━━━━━━━━━━━━━━━━━━━━━━━━━━━━━━━━━━━━━━╇━━━━━━━━━━━━━━━━━━━━━━━━━━━━━╇━━━━━━━━━━━━━━━━━┩\n│ text_vectorization                   │ (None, 500)                 │               0 │\n│ (TextVectorization)                  │                             │                 │\n├──────────────────────────────────────┼─────────────────────────────┼─────────────────┤\n│ embedding (Embedding)                │ (None, 500, 64)             │         128,000 │\n├──────────────────────────────────────┼─────────────────────────────┼─────────────────┤\n│ global_average_pooling1d             │ (None, 64)                  │               0 │\n│ (GlobalAveragePooling1D)             │                             │                 │\n├──────────────────────────────────────┼─────────────────────────────┼─────────────────┤\n│ dense (Dense)                        │ (None, 64)                  │           4,160 │\n├──────────────────────────────────────┼─────────────────────────────┼─────────────────┤\n│ fake (Dense)                         │ (None, 1)                   │              65 │\n└──────────────────────────────────────┴─────────────────────────────┴─────────────────┘\n\n\n\n Total params: 396,677 (1.51 MB)\n\n\n\n Trainable params: 132,225 (516.50 KB)\n\n\n\n Non-trainable params: 0 (0.00 B)\n\n\n\n Optimizer params: 264,452 (1.01 MB)\n\n\n\nLooking at the plot below, we can see that the accuracy of our model is really high! However, in the previous blog, remember that
…
    layers.Conv2D(32, (3, 3), activation='relu'),\n    layers.MaxPooling2D((2, 2)),\n    layers.Conv2D(64, (3, 3), activation='relu'),\n    layers.Flatten(),\n    layers.Dense(64, activation='relu'),\n    layers.Dense(10),\n    layers.Dropout(0.5)\n])\n\nWe have completed our first model! Let’s take a look at our summary.\n\nmodel1.summary()\n\nModel: \"sequential\"\n_________________________________________________________________\n Layer (type)                Output Shape              Param #   \n=================================================================\n conv2d (Conv2D)             (None, 148, 148, 32)      896       \n                                                                 \n max_pooling2d (MaxPooling2  (None, 74, 74, 32)        0         \n D)                                                              \n                                                                 \n conv2d_1 (Conv2D)           (None, 72, 72, 32)        9248      \n                                                                 \n max_pooling2d_1 (MaxPoolin  (None, 36, 36, 32)        0         \n g2D)                                                            \n                                                                 \n conv2d_2 (Conv2D)           (None, 34, 34, 64)        18496     \n                                                                 \n flatten (Flatten)           (None, 73984)             0         \n                                                                 \n dense (Dense)               (None, 64)                4735040   \n                                                                 \n dense_1 (Dense)             (None, 10)                650       \n                                                                 \n dropout (Dropout)           (None, 10)                0         \n                                                                 \n=================================================================\nTotal params: 4764330 (18.17 MB)\nTrainable params: 4764330 (18.17 MB)\nNon-trainable params: 0 (0.00 Byte)\n_________________________________________________________________\n\n\n\nmodel1.compile(optimizer='adam',\n              loss=keras.losses.SparseC
…
, 2)),\n    layers.Conv2D(32, (3, 3), activation='relu'),\n    layers.MaxPooling2D((2, 2)),\n    layers.Conv2D(64, (3, 3), activation='relu'),\n    layers.Flatten(),\n    layers.Dense(64, activation='relu'),\n    layers.Dense(10), # number of classes\n    layers.Dropout(0.5)\n])\n\nLet’s generate a summary of our model.\n\nmodel2.summary()\n\nModel: \"sequential_2\"\n_________________________________________________________________\n Layer (type)                Output Shape              Param #   \n=================================================================\n random_flip_1 (RandomFlip)  (None, 150, 150, 3)       0         \n                                                                 \n random_rotation_1 (RandomR  (None, 150, 150, 3)       0         \n otation)                                                        \n                                                                 \n conv2d_3 (Conv2D)           (None, 148, 148, 32)      896       \n                                                                 \n max_pooling2d_2 (MaxPoolin  (None, 74, 74, 32)        0         \n g2D)                                                            \n                                                                 \n conv2d_4 (Conv2D)           (None, 72, 72, 32)        9248      \n                                                                 \n max_pooling2d_3 (MaxPoolin  (None, 36, 36, 32)        0         \n g2D)                                                            \n                                                                 \n conv2d_5 (Conv2D)           (None, 34, 34, 64)        18496     \n                                                                 \n flatten_1 (Flatten)         (None, 73984)             0         \n                                                                 \n dense_2 (Dense)             (None, 64)                4735040   \n                                                                 \n dense_3 (Dense)             (None, 10)                650       \n                                                                 \n dropout_1 (Dropout)         (None, 10)                0         \n                                                                 \n=================================================================\nTotal params: 4764330 (18.17 MB)\nTrainable params: 4764330 (18.17 MB)\nNon-trainable params: 0 (0.00 Byte)\n_________________________________________________________________\n\n\n\nmodel2.compile(optimizer='adam',\n              loss=keras.losses.SparseC
…
2D((2, 2)),\n    layers.Conv2D(64, (3, 3), activation='relu'),\n    layers.MaxPooling2D((2, 2)),\n    layers.Conv2D(64, (3, 3), activation='relu'),\n    layers.Flatten(),\n    layers.Dense(64, activation='relu'),\n    layers.Dropout(0.2),\n    layers.Dense(10),\n    layers.Dropout(0.5)\n])\n\nLet’s generate the summary!\n\nmodel3.summary()\n\nModel: \"sequential_7\"\n_________________________________________________________________\n Layer (type)                Output Shape              Param #   \n=================================================================\n model (Functional)          (None, 150, 150, 3)       0         \n                                                                 \n conv2d_19 (Conv2D)          (None, 148, 148, 32)      896       \n                                                                 \n max_pooling2d_13 (MaxPooli  (None, 74, 74, 32)        0         \n ng2D)                                                           \n                                                                 \n conv2d_20 (Conv2D)          (None, 72, 72, 32)        9248      \n                                                                 \n max_pooling2d_14 (MaxPooli  (None, 36, 36, 32)        0         \n ng2D)                                                           \n                                                                 \n conv2d_21 (Conv2D)          (None, 34, 34, 64)        18496     \n                                                                 \n max_pooling2d_15 (MaxPooli  (None, 17, 17, 64)        0         \n ng2D)                                                           \n                                                                 \n conv2d_22 (Conv2D)          (None, 15, 15, 64)        36928     \n                                                                 \n flatten_7 (Flatten)         (None, 14400)             0         \n                                                                 \n dense_12 (Dense)            (None, 64)                921664    \n                                                                 \n dropout_8 (Dropout)         (None, 64)                0         \n                                                                 \n dense_13 (Dense)            (None, 10)                650       \n                                                                 \n dropout_9 (Dropout)         (None, 10)                0         \n                                                                 \n=================================================================\nTotal params: 987882 (3.77 MB)\nTrainable params: 987882 (3.77 MB)\nNon-trainable params: 0 (0.00 Byte)\n_________________________________________________________________\n\n\n\nmodel3.compile(optimizer='adam',\n              loss=keras.losses.SparseCateg
…
s.RandomFlip(\"horizontal_and_vertical\", input_shape=(150, 150, 3)),  # Horizontal flip augmentation\n    layers.RandomRotation(0.2),  # Random rotation augmentation,\n    base_model_layer,\n    layers.GlobalAveragePooling2D(),\n    layers.Dense(2),\n    layers.Dropout(0.5)\n])\n\nLet’s generate a summary of our model!\n\nmodel4.summary()\n\nModel: \"sequential_4\"\n_________________________________________________________________\n Layer (type)                Output Shape              Param #   \n=================================================================\n random_flip_2 (RandomFlip)  (None, 150, 150, 3)       0         \n                                                                 \n random_rotation_2 (RandomR  (None, 150, 150, 3)       0         \n otation)                                                        \n                                                                 \n model_1 (Functional)        (None, 5, 5, 960)         2996352   \n                                                                 \n global_average_pooling2d (  (None, 960)               0         \n GlobalAveragePooling2D)                                         \n                                                                 \n dense_6 (Dense)             (None, 2)                 1922      \n                                                                 \n dropout_3 (Dropout)         (None, 2)                 0         \n                                                                 \n=================================================================\nTotal params: 2998274 (11.44 MB)\nTrainable params: 1922 (7.51 KB)\nNon-trainable params: 2996352 (11.43 MB)\n_________________________________________________________________\n\n\n\nmodel4.compile(optimizer='adam',\n              loss=keras.losses.Sparse
…
